data.pth (torch, 20586 bytes, 6 tensors)

l1.weight f4 [8, 362]
000000 f2 98 40 3b 4b 90 36 3e b3 1a 06 3e 62 7b 6b bd
       0.0029388038 0.17828481 0.13096122 -0.057490714
000010 bf e1 71 3e 9d 40 78 3e 21 b5 8a 3e 6f 0c 42 3d
       0.23621272 0.24243398 0.27091315 0.04737514
000020 3c f0 08 3d b2 19 46 3e 70 d1 6d 3e 64 98 02 3f
       0.03343223 0.1934574 0.23224425 0.5101378
000030 ae 1a 5d 3e 24 db 51 bd 7f 0d 63 3e a4 28 a1 3f
       0.21592209 -0.05123438 0.22173117 1.2590528
000040 b1 c1 14 bc 56 50 eb 3c 73 13 24 be f4 8b 52 be
       -0.009079383 0.02872483 -0.16023044 -0.205612
000050 f0 10 29 3e 4d 1f 1d 3e 20 57 fd 3c 13 be b8 bd
       0.16510367 0.15343972 0.030925333 -0.09020629
000060 2d 2d a3 3e 04 96 23 3e ed 06 50 3d 1e ec 31 bf
       0.31870404 0.15975195 0.050787855 -0.6950091
000070 1a ad 5b 3e e2 8a 43 3e 60 d5 2f be a4 84 46 3e
       0.21452752 0.19095948 -0.1717124 0.19386536
000080 35 5b 5e bf 2b 6b cf 3e 3a a9 12 3f e8 2f 10 be
       -0.8685792 0.4051145 0.5728947 -0.14080775
000090 9a b8 92 be 72 90 81 3e 37 43 cb be 1f 50 ac 3d
       -0.28656465 0.25305516 -0.39699718 0.084137194
0000a0 35 15 ef be aa b8 58 bc c7 b5 5d 3d a3 75 fb be
       -0.46695867 -0.013227621 0.054128435 -0.49113187
0000b0 8f b5 e9 3e 93 90 9a 3e af be 03 3f ba 52 3f 3e
       0.4564633 0.30188426 0.51462835 0.18683901
0000c0 3c 37 1d 3e f6 03 e9 3e e4 e2 5f 3e bb aa 5f bf
       0.15353101 0.45510834 0.21863896 -0.8736989
0000d0 c5 70 83 3e 10 7a 95 be f1 73 f6 3d aa 70 a3 be
       0.25671974 -0.2919469 0.12033833 -0.31921893
0000e0 88 18 c7 be 4d 52 36 3e b2 04 a0 bd 07 f1 c8 3e
       -0.38885903 0.17804833 -0.078133956 0.3924639
0000f0 bb 0f 3b 3e 1a 5f 06 3e 9e 7a 8d be 3d b0 1e 3e
       0.1826772 0.13122216 -0.27632612 0.15496917
000100 20 0c 22 be 6b 66 51 be dc 07 f9 3c c2 d4 fa 3e
       -0.15824938 -0.20449226 0.030399255 0.48990446
000110 43 0d 5a be bf af a2 3e 16 9d fa 3d 6e 8d 06 40
       -0.21294121 0.3177471 0.12236993 2.1023822
000120 66 7f 57 3f 0b 71 1e 3f 53 4d 2e be 4c 3c 35 3d
       0.8417877 0.6189124 -0.17021684 0.044246957
000130 25 d4 97 be c7 c0 c8 3e f0 91 23 be 46 53 1e be
       -0.2965404 0.39209577 -0.1597364 -0.15461454
000140 f7 23 9b 3c 0a 28 83 3d c4 a0 94 3e 65 76 ae be
       0.018938048 0.06404121 0.29028904 -0.34074703
000150 91 d6 ab 39 3e ee 0c be 5e 45 be 3d 17 27 df 3e
       0.00032775526 -0.13762757 0.092905745 0.4358451
000160 32 a5 e4 bc 43 38 c7 bd 3a 7c 1f 3f 06 ea 86 3e
       -0.027910803 -0.09727528 0.6229893 0.2635042
000170 22 85 95 3e 00 7b 33 3e 9a c1 59 3d c5 80 4c 3e
       0.29203135 0.1752739 0.05316315 0.19970997
000180 19 8a 83 3f 8d 32 6d be e3 b9 44 3e 80 6c 81 be
       1.0276519 -0.23163815 0.19211535 -0.2527809
000190 bc 2d 12 be 59 69 e5 3e 09 1b ab 3e d1 1b a9 3f
       -0.14275259 0.44806936 0.33419064 1.3211614
0001a0 9d 1c 5f bd 20 3e 46 3f 26 01 4c 3f a8 df 12 3e
       -0.054470647 0.77438545 0.7968925 0.1434313
0001b0 4e 57 87 be a8 1d 76 3e e0 d3 58 be 54 3d 19 3f
       -0.26433796 0.2403475 -0.21174574 0.59859204
0001c0 09 e0 d9 3e 96 86 d6 3e 62 89 cc 3d 0a 81 5d 3f
       0.42553738 0.41899556 0.09987141 0.86525023
0001d0 49 ca 8b 3f fc b8 3b 3f cc ca b1 be 4c 14 8b be
       1.0921108 0.7332914 -0.34725034 -0.27163923
0001e0 6c f0 55 be 7f 93 22 be 7e b3 ed 3e d2 a2 4f 3d
       -0.20892495 -0.15876578 0.46426004 0.050692387
0001f0 4b 2b 38 3f eb be 12 3d ef 6c 9d 3e 8b 0a c4 be
       0.7194106 0.035826605 0.30747172 -0.38289294
000200 8f ef 84 be 56 b6 0e 3f d7 10 53 bf 7c 78 75 bf
       -0.2596402 0.5574697 -0.8244757 -0.9588697
000210 96 46 d3 3d f6 31 5d 3e 40 cd 52 be c0 3f a1 3e
       0.103161976 0.2160109 -0.20586109 0.3149395
000220 0c 55 2e be 28 ca f2 be 7f a1 ae be 7d 2f 77 bf
       -0.1702463 -0.47419858 -0.34107587 -0.96556836
000230 88 a3 02 be c9 9e 35 3e b7 78 a3 3e 41 44 f8 bc
       -0.12757695 0.17736353 0.31928036 -0.030305983
000240 cd c1 95 3e 14 63 93 3e b8 c9 3e 3e d4 98 8a 3e
       0.2924942 0.28786528 0.18631637 0.27069724
000250 57 9d 9b be 47 af 53 3d 67 d5 8d 3e 54 f2 c7 bd
       -0.30393478 0.05168083 0.27701876 -0.09763017
000260 22 ae 1f 3e 33 01 1e 3f 46 18 bc be 3a 86 e5 bc
       0.1559377 0.6172058 -0.3673727 -0.028018106
000270 f5 5b e1 3e 57 6a 60 bc 8b 2f ef 3e 64 12 08 3f
       0.4401547 -0.013697228 0.4671596 0.5315306
000280 e4 fc df bd 17 51 0a bf e8 36 33 be e2 24 bb 3d
       -0.10936907 -0.54029983 -0.17501414 0.09137894
000290 bb f2 18 3f e8 9f e7 bd 38 5e 29 3e cf db 2a 3e
       0.5974538 -0.113097966 0.16539848 0.16685413
0002a0 3a 50 89 3e a6 d6 15 bd fb e6 53 3e a6 cf 2c be
       0.2681902 -0.036581658 0.20693581 -0.16876087
0002b0 ee 5c fb 3c d2 1f 15 bf fb f2 b6 be 55 94 84 3e
       0.03068396 -0.5825168 -0.35732254 0.25894418
0002c0 5d 73 58 3e 28 fa 9b bd 85 34 5d 3e b7 3f 1e 3d
       0.21137758 -0.07616073 0.21602066 0.038634982
0002d0 16 f9 3f 3e 64 9f 73 be a8 92 a7 be 63 23 aa 3d
       0.18747362 -0.23791271 -0.32729077 0.08307531
0002e0 97 fc ec bd 7c fa 88 3d 80 aa ee 3d 94 c9 ba bd
       -0.11571615 0.06688401 0.11653614 -0.09120479
0002f0 2d 8a 82 3e bf 83 84 3d fa 98 7e be 65 e3 35 3e
       0.25496045 0.06470441 -0.24863043 0.17762525
000300 a7 10 30 3d ec 42 68 3e da f5 15 bf 19 a1 dd 3e
       0.04298463 0.22681779 -0.58578265 0.4328697
000310 f9 5a f1 be a0 c1 3a be 3d 82 51 3f 0b dc 96 3d
       -0.4713972 -0.18237925 0.8183935 0.073661886
000320 5a e1 21 3e 9b 12 2c 3f b1 de 99 3e f6 b4 a6 be
       0.15808621 0.6721589 0.30052713 -0.32559937
000330 ee 88 ff bc b4 5e fa 3e 0f ce 9e be 50 8f 5c be
       -0.031193223 0.48900378 -0.31016585 -0.21539044
000340 c7 13 d3 be 5c 96 c4 3c b9 1b cc 3e 58 98 d4 3d
       -0.41226026 0.023997478 0.398649 0.1038062
000350 42 44 b5 3d 5a c5 64 3d 2f cd bd 3e 83 5b 26 3e
       0.0885091 0.05585227 0.37070605 0.16245846
000360 7f cc d9 be 54 ba 05 be 5c 5a 85 3d 0b 3b 76 3e
       -0.4253883 -0.1305936 0.06511375 0.2404596
000370 70 b0 13 3f 92 d5 00 3e 50 7a ce 3d af e1 50 3f
       0.576911 0.1258147 0.10081923 0.81594366
000380 d8 df d0 bc 32 69 35 3e 90 1d a9 bd 9c 28 ca bd
       -0.025497362 0.1771591 -0.08257592 -0.09871027
000390 f0 a3 bf 3f c6 d9 bf bd 21 8d 7f 3d c8 44 ff be
       1.4971905 -0.09367709 0.06239045 -0.49857163
0003a0 06 40 60 bf d0 e0 04 bf 73 f4 c5 be f1 d0 82 3e
       -0.8759769 -0.51905537 -0.38663062 0.25550035
0003b0 f2 05 ba be fc 20 b1 be 4a f4 45 3e 89 fb 14 3f
       -0.3633266 -0.34595478 0.1933147 0.5819631
0003c0 e3 23 3c 3e cf f1 cc 3e b0 98 0d bf a9 ef c0 3e
       0.18373065 0.40028235 -0.5531111 0.37682846
0003d0 a0 8d 88 3e 0d 3b 1f 3f 55 04 12 3f bc 07 a7 3d
       0.2667055 0.6219948 0.5703786 0.08155772
0003e0 52 86 7a 3d d0 b0 6a 3e da 8c 03 be b7 d5 c7 be
       0.061163254 0.22919011 -0.128467 -0.3903024
0003f0 6a fc 92 be 6a 04 25 be d2 b4 f2 3e fb 02 fd 3d
       -0.28708202 -0.16114965 0.4740358 0.12354084

l1.bias f4 [8]
000000 19 20 79 3f e5 c3 71 3f 82 40 67 3f 1f 5e ba 3f
       0.973146 0.94439536 0.90332806 1.4559973
000010 1a a8 bc 3f ac 3b 45 3f c7 6c 7d 3f d2 92 9d 3f
       1.47388 0.7704418 0.98994106 1.2310431

l2.weight f4 [8, 8]
000000 a0 40 86 bf ea 0d 92 be 13 b2 02 40 b2 f4 b1 3e
       -1.0488472 -0.2852624 2.0421188 0.34757
000010 f3 2f 1a 40 91 84 4e be ec 92 15 bf cf d9 05 40
       2.4091766 -0.20167758 -0.5842731 2.091419
000020 3f 5b 89 bf 03 2d 86 be ee b2 ce 3f 98 2d 76 3f
       -1.0730971 -0.26206216 1.6148355 0.9616332
000030 59 73 0f 40 67 fc 45 3f 45 2b bb bf 53 16 8d 3e
       2.2414153 0.7733826 -1.462258 0.27556095
000040 0a 08 bb 3f db f9 42 be c3 bb d6 bf 24 66 b4 3f
       1.4611828 -0.19040625 -1.677605 1.4093671
000050 52 ac dd 3f 55 61 ec bf 59 20 2a 40 ea 85 d8 3f
       1.7318213 -1.8467203 2.6582243 1.6915867
000060 e0 1a bb bc 2a c8 b4 be aa 99 00 be 97 31 b4 be
       -0.022839963 -0.35308963 -0.12558618 -0.35194084
000070 bc c4 d6 bd 6a e9 89 be 0f d7 85 be d5 e9 a3 3e
       -0.10486743 -0.26935893 -0.2614064 0.32014337
000080 81 d3 bb 3f a2 81 9a 3f 8f e4 86 3f 00 6e b2 3f
       1.4673921 1.2070811 1.05385 1.3939819
000090 fb 33 f3 bf 7a 65 35 40 ea 02 ac 3e e9 40 eb 3e
       -1.9000238 2.8343186 0.33595973 0.4594796
0000a0 7e 18 13 40 f9 20 16 40 b5 23 04 3f 25 9b 6c 3f
       2.29837 2.3457625 0.51616985 0.9242423
0000b0 15 17 11 bf 71 c9 91 bf d0 11 02 c0 2b e8 83 3f
       -0.56675845 -1.13896 -2.0323372 1.0305227
0000c0 b4 b9 e0 bc c6 c3 6b 3f 21 d2 ca 3d ec 00 14 40
       -0.0274323 0.920956 0.0990336 2.3125563
0000d0 86 45 a4 3f ad 04 8e 3f 5c e7 f0 3e 6e e0 18 c0
       1.2833717 1.1095177 0.47051513 -2.388698
0000e0 b1 32 a3 3f 4c ed 15 40 d8 6d ac 3f e7 71 03 c0
       1.2749845 2.3426085 1.3471022 -2.053827
0000f0 1d 9e 1b 3f 14 f8 a2 3f d3 f3 f7 3f fc 7e 59 3f
       0.60788137 1.2731957 1.9371284 0.8495939

l2.bias f4 [8]
000000 0c ad 29 3f ae 99 49 3e ad 0c 96 3f 2b 27 8d be
       0.66279674 0.1968753 1.1722618 -0.27568945
000010 67 5d bd 3e da 8b 9b 3e 29 93 33 3f d1 0f 86 be
       0.36985323 0.30380136 0.70146424 -0.26183942

l3.weight f4 [23, 8]
000000 ce 4d c6 bd 6f 7c 5b c0 1d 7b 18 3e 98 ce 9e bd
       -0.09682809 -3.4294698 0.14890714 -0.077542484
000010 37 de 25 3e 59 9f 52 3f 6c 65 f3 bf 14 bd b1 be
       0.1619805 0.82274395 -1.9015326 -0.34714568
000020 7e c1 fc bf 02 9f 03 c0 dc 4c 3f 3f 09 92 85 3e
       -1.9746549 -2.05658 0.74726653 0.26087978
000030 d0 f8 b3 bd 89 71 df 3e 81 fb b8 3e 79 fe 96 bf
       -0.087876916 0.43641308 0.36129382 -1.1796409
000040 ba da 26 3f df 1b c5 3e 22 2d 86 bf 4d e1 9e 3e
       0.651775 0.38497826 -1.0482523 0.31031266
000050 66 c0 d5 3e a2 9b 02 c0 9c a2 14 c0 76 23 a7 3d
       0.4174835 -2.040749 -2.322425 0.081610605
000060 3b 74 be be f5 e2 38 be 34 5f 2e c0 78 ce d5 3d
       -0.37198052 -0.18055327 -2.7245607 0.104397714
000070 b9 f6 ec 3e c2 4a 9c 3e 13 13 e3 be 6d 5d 0a bd
       0.46281984 0.30525786 -0.4435049 -0.033780504
000080 f2 ff 77 bf 74 b2 83 bf 71 b3 53 bf 5f 88 84 3e
       -0.96874917 -1.0288835 -0.8269568 0.25885293
000090 6f ca 0e 3d 03 ee 44 3f 65 33 0c 3e 6e 8e fb bd
       0.034861024 0.7692568 0.1369148 -0.12283026
0000a0 8c f5 be be 3e 1c 16 3d 56 d1 1f be a8 01 12 3d
       -0.37296712 0.036648028 -0.15607199 0.03564611
0000b0 ca 26 70 bf 83 a8 cc 3e 06 64 d1 3e 49 0c 86 bf
       -0.9380919 0.39972314 0.40896624 -1.0472499
0000c0 90 78 2e c0 d5 fe ec bf f6 17 22 3f 9f 47 97 3e
       -2.7261086 -1.8515269 0.6331781 0.2954683
0000d0 0f fe e9 bd 71 51 d7 3c 3c 69 b5 bf 95 72 e8 3e
       -0.11425411 0.026283951 -1.417274 0.4539992
0000e0 2a a5 0f c0 72 32 6b bf b1 c8 2a c0 80 8d 4d 3b
       -2.2444558 -0.9187385 -2.6684992 0.0031364858
0000f0 ec 4d 5e 3f bf 2a 1f 3f 86 82 21 3f 4c 78 ce be
       0.8683765 0.621746 0.6308979 -0.40326154
000100 f5 72 35 3f 70 8b 06 3f 6c e4 45 3e 9d 85 8e 3e
       0.70878536 0.52556515 0.19325417 0.27836314
000110 73 1d 51 c0 86 32 25 bf ec 38 7c 3e 15 06 16 c0
       -3.2674224 -0.6453022 0.24631089 -2.3441212
000120 57 7d 43 bf 48 c0 5e bf bc a2 9a 3f 83 65 55 be
       -0.7636313 -0.8701215 1.2080913 -0.20839505
000130 78 af 0f c0 f3 86 dd bf d4 3e 8b 3f 41 44 6e bf
       -2.2450848 -1.7306808 1.0878549 -0.930729
000140 3c 11 b6 3e 28 48 dd 3e 80 ec de bf 55 6b 99 3e
       0.35560024 0.43219113 -1.7415924 0.299647
000150 b1 98 2b bf 07 4a b7 bd 56 e8 86 3d 34 2c d4 bd
       -0.67029864 -0.089496665 0.06587283 -0.103599936
000160 c4 c4 55 3e 4f f4 8a be 78 29 2b 3f ce 66 ab be
       0.20875841 -0.27139518 0.6686015 -0.3347687
000170 03 bd f1 be 3b e3 14 3f 72 b5 e3 bf 23 ae 18 c0
       -0.47214517 0.58159226 -1.7789748 -2.3856285
000180 da 7c 1c 3f e5 44 4d 3f 99 79 ea bf 29 74 ac be
       0.6112801 0.8018325 -1.8318359 -0.33682373
000190 98 ce fc bd 29 93 c7 bf 5d ef 13 3f b4 6f ff bf
       -0.12344092 -1.5591785 0.57787114 -1.9955964
0001a0 e6 03 f6 be d4 12 74 3e 4b 2e b8 bf c0 33 89 3b
       -0.4804985 0.23835307 -1.4389127 0.0041870773
0001b0 f1 60 fe 3e af 8a 80 3e 97 d3 e3 3e d1 3c d2 bf
       0.49683335 0.25105807 0.44497368 -1.642481
0001c0 59 b6 81 be 7d 89 40 bf 2d cd e4 be 1b 47 9e be
       -0.25334433 -0.7520979 -0.44687787 -0.30913624
0001d0 9d dc 96 bd 09 75 6c bf 35 43 d3 be 09 b2 1f 3f
       -0.073662974 -0.9236608 -0.41262212 0.62381035
0001e0 00 3c 01 3f 42 be 1f 3d b1 f2 74 be e7 f0 aa 3e
       0.5048218 0.038999803 -0.23920704 0.3338692
0001f0 97 1a bb bf e0 51 3f c0 b1 33 11 3e 70 6e b6 3e
       -1.461749 -2.9893723 0.14179875 0.35631132
000200 7e 89 ad bf a1 74 2a c0 17 56 18 3f ec 26 a9 be
       -1.3557584 -2.6633685 0.5950636 -0.33037508
000210 b2 54 8b 3d f8 a7 41 c0 b1 af 01 be 81 29 41 3f
       0.06803264 -3.025877 -0.12664677 0.75453955
000220 cd 9e 8d 3e 6a 14 8a be 76 4d 0c bf 28 a4 4f be
       0.27660218 -0.269687 -0.54805696 -0.20277464
000230 be 4f 95 bf 05 3a 57 3f 2d 3f c5 bf 6a d9 37 3d
       -1.166496 0.84072906 -1.5409905 0.044885077
000240 08 e4 e4 bb dc d7 ba bf d0 48 6a 3f c0 d5 a6 3c
       -0.0069851913 -1.4597125 0.91517353 0.020365596
000250 46 d1 45 bf a1 10 85 bf 91 9b d0 bf b8 30 c5 bd
       -0.7727245 -1.03957 -1.6297475 -0.09628433
000260 6a 11 fe be 8f a1 04 c0 ac 20 b2 bf bc 18 9a bd
       -0.4962266 -2.0723608 -1.3916221 -0.07524249
000270 17 15 2f 3f f3 2e 3f 3e e9 2e 0a c0 85 d4 52 3f
       0.68391556 0.18670253 -2.1591132 0.8235553
000280 55 6c 40 c0 c6 d8 41 c0 63 af ec be 46 15 20 3e
       -3.006612 -3.0288558 -0.4622756 0.15633115
000290 1b e5 30 3f 91 00 4b be e6 79 06 3f 3f 9f 81 3e
       0.6909959 -0.19824435 0.5252975 0.25316808
0002a0 64 d3 1a bf 5c 0b 0e bf a5 ad 25 3e 62 43 58 3e
       -0.60478806 -0.55486083 0.16179521 0.21119455
0002b0 6c 1e 4f 3f e8 02 07 c0 d5 33 5a 3f fc f5 28 c0
       0.80905795 -2.1095524 0.8523534 -2.6400137
0002c0 64 bb 5e 3f 89 ab ec 3c 53 b4 15 3f 38 69 87 3d
       0.87004685 0.028890388 0.5847828 0.06611866
0002d0 40 8d 43 c0 1b 9e a2 bf 18 88 1b c0 bc be ec bd
       -3.0554962 -1.27045 -2.4301815 -0.11559817

l3.bias f4 [23]
000000 78 44 01 bd 2c db a6 be 82 59 ae 3d c5 e4 e6 be
       -0.031559438 -0.3258909 0.08513166 -0.45096412
000010 83 f3 57 3e b9 cc d8 be 77 b7 13 bf ce b2 da 3d
       0.21088986 -0.4234369 -0.5770182 0.106786355
000020 f3 58 c6 3e 74 3c e9 3e d8 72 13 bf 37 78 4b 3e
       0.38739738 0.45553935 -0.5759711 0.19870077
000030 f1 58 04 be 6e de a0 be 37 5e 09 3c 3f 01 29 3d
       -0.12924553 -0.314197 0.008384279 0.041260954
000040 e7 d1 04 3f a1 01 43 bd 78 8d ee be 4e 7c 41 be
       0.51882786 -0.047608975 -0.46592307 -0.18895075
000050 b0 9f c9 bc e4 26 07 3e 80 fd 8e be
       -0.024612278 0.1319843 -0.2792778
